…
mpilamos el modelo.\n1 2 3 model.compile(optimizer=\u0026#39;adam\u0026#39;, loss=tf.keras.losses.SparseCategoricalCrossentropy(from_logits=True), metrics=[\u0026#39;accuracy\u0026#39;]) Para asegurarnos que todo salio bien vamos a imprimir el resumen del modelo.\n1 model.summary() 1 2 3 4 5 6 7 8 9 10 11 12 13 14 15 16 17 18 19 20 21 22 23 24 25 26 27 28 29 30 31 32 Model: \u0026#34;sequential_3\u0026#34; _________________________________________________________________ Layer (type) Output Shape Param # ================================================================= rescaling_5 (Rescaling) (None, 300, 300, 3) 0 conv2d_15 (Conv2D) (None, 300, 300, 16) 448 max_pooling2d_15 (MaxPoolin (None, 150, 150, 16) 0 g2D) conv2d_16 (Conv2D) (None, 150, 150, 32) 4640 max_pooling2d_16 (MaxPoolin (None, 75, 75, 32) 0 g2D) conv2d_17 (Conv2D) (None, 75, 75, 64) 18496 max_pooling2d_17 (MaxPoolin (None, 37, 37, 64) 0 g2D) flatten_5 (Flatten) (None, 87616) 0 dense_8 (Dense) (None, 128) 11214976 dense_9 (Dense) (None, 2) 258 ================================================================= Total params: 11,238,818 Trainable params: 11,238,818 Non-trainable params: 0 _________________________________________________________________ Ahora vamos a entrenar el modelo.\n1 2 3 4 5 6 epochs=4 history = model.fit( train_ds, validation_data=val_ds, epochs=epochs ) Vamos a iniciar el entrenamiento con 4 épocas, pero si queremo
…
